weights/p1ch8/bird_vs_airplanes.pt (torch, 75251 bytes, 8 tensors)

conv1.weight f4 [16, 3, 3, 3]
000000 cc c0 66 bd 42 23 30 3e 1f da 39 3e b7 80 73 3d
       -0.05633621 0.1720095 0.18149613 0.059448924
000010 a8 d0 5a be 67 4a 91 3e 2b 6b 9e 3e 24 49 a1 3c
       -0.21368659 0.28377077 0.30941138 0.019688196
000020 c0 56 8c be 5b e8 97 bd 7e a1 b4 3d 0a 0e 30 be
       -0.27409935 -0.07417365 0.08819865 -0.17192855
000030 89 f4 18 3d f5 82 37 3c d9 58 48 3e 90 25 99 3e
       0.037342582 0.011200656 0.19565143 0.2991147
000040 dc 35 1f bc ae a5 3e be c0 eb a1 3d 9a 9f 53 be
       -0.009717431 -0.1861789 0.07906294 -0.20666352
000050 36 5f 93 bd ea 34 df bd 4b d3 43 be cf 5c 4d be
       -0.071958944 -0.108987644 -0.1912357 -0.20054935
000060 e6 76 88 3e b9 b4 6e bd 38 10 d7 be 0e 42 dd 3c
       0.26653212 -0.05827782 -0.4200456 0.027009036
000070 cf 14 83 3c 8c b3 85 3d 99 7f 22 be 66 91 87 be
       0.016001133 0.065283865 -0.15868987 -0.26478118
000080 65 c0 32 bd ec 1e 65 be 42 6f 2a bd 3f 78 09 3e
       -0.043640513 -0.22375077 -0.04161001 0.13424776
000090 dc df 89 bd fa b6 44 be 9d 9f e1 3d bb 82 1b 3e
       -0.06732151 -0.19210425 0.11016772 0.15186588
0000a0 9d 91 41 be 4e 34 40 3c be c9 7f bd 3d 8a 7a be
       -0.18903203 0.01173122 -0.062448256 -0.24466796
0000b0 ef 26 30 be 49 71 a8 3e 0e f0 b7 bd 1e ff 33 3e
       -0.17202352 0.3289893 -0.08981334 0.17577788
0000c0 c1 bf 97 3e 4d c4 94 3e 42 3f 5b 3e b3 0e a5 3e
       0.29638484 0.29056016 0.2141085 0.32237777
0000d0 37 19 66 3e 50 17 84 3e 8b d1 20 be d1 46 ac 3d
       0.22470556 0.25799036 -0.15704934 0.08411945
0000e0 65 59 9a bc fa 16 2b be 6e 7c d4 bc a3 b9 d6 bd
       -0.018841455 -0.16707984 -0.025938239 -0.10484626
0000f0 81 0f c9 bd 6d 60 ad bd 8e 89 10 be f5 8f 07 be
       -0.0981741 -0.084656574 -0.14114973 -0.13238509
000100 35 79 01 3d bd b9 0f 3e 84 b1 31 be 68 72 71 bd
       0.031609733 0.14035697 -0.17352873 -0.058946997
000110 9d 52 c4 bd bc e3 2d bc 7a 08 50 be 6f e9 ab bb
       -0.0958607 -0.010613378 -0.20315734 -0.0052463333
000120 62 b0 80 bd 76 b6 84 bd 88 be 25 3e 3b f2 2f be
       -0.06283642 -0.06480114 0.16185963 -0.17182247
000130 f6 13 fd bd 24 f3 3d 3e ce b8 c0 bd e5 c1 47 be
       -0.12357323 0.18549782 -0.09410249 -0.19507559
000140 31 d2 1a 3e 82 91 aa be d4 08 e7 3d 78 1b 82 be
       0.15119244 -0.3331414 0.11280981 -0.25411582
000150 dd 07 23 3e b5 00 72 bd 90 19 4a bd 85 cd 0e 3d
       0.15920968 -0.059082706 -0.049340785 0.034863967
000160 c5 36 67 3e 89 7b 2a be 60 0d ac be 8e 54 5a be
       0.22579487 -0.16648687 -0.33603954 -0.21321318
000170 93 62 21 be 57 f9 af bd 16 c7 bd bb bb f3 5c be
       -0.1576026 -0.0859248 -0.005791555 -0.21577351
000180 57 85 27 bd b6 f0 82 3e d6 f9 2e 3e 86 77 37 b9
       -0.040898647 0.25574273 0.17087492 -0.00017496766
000190 9e b2 b1 3c 07 0c b5 bd f8 a1 aa bd 59 de 44 3d
       0.021691617 -0.08840185 -0.08331674 0.04806361
0001a0 92 07 59 bd 4f ba 5d bd cb 79 96 3e fc 40 68 3d
       -0.052985735 -0.054132756 0.29389796 0.0567026
0001b0 27 2d 65 be a4 6e 38 3e 52 2b ab bd 84 1b 9c be
       -0.22380506 0.18010956 -0.08357872 -0.30489743
0001c0 0f 77 d7 bd 0b 62 bd be 53 46 10 be 89 52 92 bd
       -0.105207555 -0.36988863 -0.14089327 -0.071446486
0001d0 33 36 90 be 2b c9 0e 3e c9 0c fa bc 6a 36 90 3d
       -0.2816635 0.13943927 -0.030523675 0.07041629
0001e0 02 0c c6 3d 97 a1 39 3e b5 c8 2f 3e 67 13 f3 3d
       0.09670259 0.18128048 0.17166407 0.11868935
0001f0 00 53 a1 3e f5 dc 8f 3e fc 21 df bd e0 f3 1c 3e
       0.31508636 0.28098264 -0.10895154 0.15327406
000200 fc 03 b3 bd 3c 3c 81 3b 93 89 4a 3e 71 22 c8 bd
       -0.08740994 0.003943948 0.19779043 -0.09772194
000210 c6 08 91 bd c5 60 4d 3e 2a 6d 85 bd 1d fb 85 3c
       -0.070817515 0.20056446 -0.06514962 0.016355092
000220 2e 63 4f 3e c6 29 22 bd 2c 59 87 3d a0 af 7f 3e
       0.20252678 -0.03959062 0.06608805 0.2496934
000230 2f d7 2f 3e f7 76 f7 3c e2 6f fa bd e3 8c 5a 3e
       0.1717193 0.030208094 -0.12228371 0.21342807
000240 d0 d8 37 bd e7 ab 2a be 1c 6e 20 be 58 5d 51 be
       -0.044884503 -0.16667138 -0.15667003 -0.20445764
000250 80 e8 58 3d d5 df 05 be cd 10 84 3d 09 4f 06 be
       0.052956104 -0.13073666 0.06448517 -0.13116087
000260 67 f3 fc 3d 60 51 9f 3d ed 40 56 bc c3 61 b4 3d
       0.12351113 0.07779193 -0.013077003 0.08807709
000270 c8 05 71 3e db e1 ce 3d 7a 86 41 3e dd 30 7f 3d
       0.23537362 0.10101672 0.18898955 0.06230246
000280 10 89 3c 3c d6 2e 95 bd 3d 08 af bb 9b da b5 bc
       0.011507288 -0.07284324 -0.0053415583 -0.022198966
000290 50 3c e7 bd c7 0c 59 be 89 54 2f be 10 98 97 3e
       -0.112908006 -0.2119628 -0.17122091 0.29608202
0002a0 4b d9 23 be 81 6a c6 bc ec 08 a7 3d 30 20 92 bd
       -0.1600086 -0.024220707 0.081559986 -0.071350455
0002b0 d9 96 14 3e da 5e c8 bd 41 da 9f be 69 38 1f 3c
       0.14510669 -0.097837165 -0.31221202 0.009718039
0002c0 80 fd a2 3e 72 a5 69 be 5b 7a 1a 3e f3 0d f4 39
       0.3183403 -0.22817019 0.15085737 0.000465497
0002d0 d6 40 02 3e bd b9 45 3e 3e 04 0b 3d 10 4f 88 be
       0.12720045 0.19309135 0.033939593 -0.2662282
0002e0 5d f5 94 3d 6b 52 6a 3e e5 90 c3 3d 05 b0 31 3e
       0.07273362 0.22883002 0.09549121 0.17352302
0002f0 c1 46 eb 3d ca 7e 2a 3e 9e da 33 bd 25 d3 eb 3d
       0.114881046 0.16649929 -0.04390966 0.11514882
000300 97 bd 00 3e d3 44 0d be cb 10 4e 3e 59 8f a1 3d
       0.12572323 -0.13795786 0.20123594 0.078886695
000310 55 da 89 3d 61 1d bf 3d 30 63 1f bd cf 73 21 bd
       0.06731097 0.093317755 -0.038912952 -0.039417084
000320 86 d1 80 be 75 51 9d be d1 25 d6 3c e0 6c b8 3d
       -0.25159854 -0.3072621 0.02614108 0.09005141
000330 ea 60 5e be bd a5 20 be 06 94 7d bc 16 b3 13 bd
       -0.21716657 -0.15688224 -0.015477186 -0.03605946
000340 42 63 25 bd 58 39 65 be d5 f2 8f be e0 0b 46 bd
       -0.040377863 -0.22385156 -0.28114954 -0.04835117
000350 a4 0e 3f 3e d5 ea aa bd 47 be de bd ba f3 3f bc
       0.18657929 -0.08345572 -0.10876136 -0.011715824
000360 e1 c9 e1 bd 14 4d 05 3e bc c7 0e bd 67 52 80 bd
       -0.110248335 0.13017684 -0.03485845 -0.06265717
000370 42 b7 c0 3d 0e 89 c7 3d ce eb 56 bd 7e 88 33 be
       0.09409954 0.09742938 -0.052470975 -0.17532536
000380 03 b3 71 3e 8e 45 9e 3c fe d7 e1 3d e2 ae 02 be
       0.23603444 0.019320276 0.11027525 -0.12762025
000390 d3 7b 64 be 88 10 67 3e 58 07 ce 3d a3 6f 64 be
       -0.2231286 0.225649 0.100599945 -0.22308211
0003a0 cc 60 b0 3d ad a4 37 3e c3 43 3f 3d 07 47 b2 bd
       0.086122125 0.17933913 0.046695482 -0.08704954
0003b0 03 b2 77 3d c4 b4 da bd 9c 33 ca bd ac 2b 4c bb
       0.0604725 -0.106790096 -0.09873125 -0.003115396
0003c0 04 27 98 be d4 eb 10 bc 65 de 4d 3e 85 47 19 bd
       -0.29717267 -0.008845288 0.20104368 -0.037421722
0003d0 32 d2 43 be 3d 4a 8b be 6f a3 e2 bc 40 2a 6c be
       -0.19123152 -0.27205077 -0.027665822 -0.23062992
0003e0 70 c7 31 3e 58 3a f4 bc 7e 56 37 be 92 2e 45 bd
       0.17361236 -0.029812977 -0.17904088 -0.048140116
0003f0 ab a0 3b 3e 9c c0 09 3e a7 8f 9b bd 00 4d b3 bb
       0.18323009 0.13452381 -0.07595759 -0.0054718256

conv1.bias f4 [16]
000000 0c 07 5c 3c 84 ad a1 bd fe 26 07 3e e7 e8 9a be
       0.0134294145 -0.078944236 0.13198468 -0.30255815
000010 b4 70 b5 bd 7a 21 86 3e 09 e1 79 be 3f 74 d7 3d
       -0.08859387 0.26197416 -0.2440225 0.10520219
000020 6d 70 b1 bd d1 b4 12 3e e3 63 a7 3c 81 74 b0 be
       -0.08664022 0.14326788 0.020433372 -0.34463885
000030 bf 49 cc be c6 bc b2 bd 06 fa a4 3d a5 63 1a bd
       -0.39900014 -0.08727412 0.08055501 -0.037692685

conv2.weight f4 [8, 16, 3, 3]
000000 ab b0 a2 3d 2d 9f f6 3d 23 95 87 3d f5 b7 74 3d
       0.07943853 0.12042079 0.066202424 0.059745748
000010 01 e4 43 3e 29 d9 0e 3e 0e 5e 64 3d 40 99 19 3e
       0.19129945 0.13950028 0.05575376 0.14999866
000020 e5 9d 2a 3e e9 26 da 3c 98 3f 54 bd 23 8d 0c 3e
       0.16661794 0.026629882 -0.05181846 0.13725714
000030 51 32 1b bd b5 20 02 be 5e 92 89 bd 91 5b 57 3d
       -0.037889782 -0.12707789 -0.067173705 0.05257756
000040 3d e3 be bd c1 1f b2 bd 92 54 d2 bd 1b c5 7b 3d
       -0.09320686 -0.08697463 -0.10270037 0.06146727
000050 a3 4f f4 3c 8d d2 f4 bd 74 fc 1b 3d a0 b2 89 bc
       0.02982313 -0.11954222 0.038082555 -0.016808808
000060 4e 95 0d bd 59 fd f6 3c 50 c0 9e 3d 74 04 10 be
       -0.034566216 0.030150102 0.077515244 -0.14064199
000070 1f 7d c3 3a e9 f4 24 3d 42 42 34 be e0 7d ac bd
       0.0014914608 0.040272627 -0.176034 -0.08422446
000080 f4 e0 54 3d 98 ea 4b 3c d1 e3 28 be 1e 49 d9 bd
       0.051972345 0.012446068 -0.16493155 -0.10609649
000090 5c cf 1a be 0e 9c 3b be a9 7d 16 bd 98 63 d1 bd
       -0.15118164 -0.18321249 -0.036740933 -0.10224074
0000a0 83 ca 1f be 98 7a 86 bd c2 8b ca 3b af 80 e6 bd
       -0.15604596 -0.06566352 0.006181211 -0.11255013
0000b0 9d 28 93 3c 11 49 8a 3c 46 b6 4d 3b b6 a5 c1 3d
       0.017963702 0.016880544 0.003138916 0.09455435
0000c0 ff 17 03 3e 42 37 dc 3d 34 4a 84 bc 5a 28 be 3d
       0.12802123 0.10752727 -0.016148664 0.0928504
0000d0 78 5b be 3d 4b 06 a3 3d d5 b1 a0 3c 9c cf cc 3d
       0.0929479 0.07960185 0.019616047 0.10000536
0000e0 a1 ad 23 bd 72 99 31 bc dc 58 31 bd 12 69 66 bd
       -0.039960507 -0.010839807 -0.043297634 -0.056252547
0000f0 21 3f ae 3a 2d 40 c8 bc 7a a3 78 bc 24 2d e0 3d
       0.001329396 -0.024444664 -0.015175695 0.1094611
000100 82 ec 70 3c 17 c6 f3 3d a9 65 16 bd 3f e4 37 3e
       0.014704825 0.11903017 -0.036718044 0.17958163
000110 c1 70 f1 3d b3 60 54 3c 4e 55 18 3e 37 23 dd 3d
       0.11789084 0.012962508 0.14876291 0.10797732
000120 50 6d 95 3d 25 c6 cd 3d e8 38 5a 3d 07 f9 03 3d
       0.0729624 0.10047559 0.053276926 0.032219913
000130 36 90 c4 3c 31 d4 fc 3d 21 18 01 3b d5 d9 0b 3e
       0.023994546 0.1234516 0.001969822 0.13657315
000140 27 5d b7 3d 84 ac 02 bd 52 1a 08 be a4 d2 96 bd
       0.08953314 -0.031902805 -0.1329129 -0.07364395
000150 9d e7 80 bd b7 ac c4 bd fd 02 7a bd d7 0e 8b bb
       -0.06294177 -0.09603255 -0.061038006 -0.0042437124
000160 6d 38 10 be 7c 93 06 bc ed 79 4f 3c 67 36 0f be
       -0.14084025 -0.008213874 0.012663347 -0.13985597
000170 1d dc 2c be d3 df d3 3c ce 63 a1 bd 44 8a c1 bd
       -0.16880842 0.025863564 -0.07880364 -0.094502
000180 b3 1f 25 bd b4 e3 2a bd ae 9b 9d bd 02 90 16 bc
       -0.040313434 -0.04172106 -0.07695709 -0.009189608
000190 93 b4 a9 bd 1f 57 3c bc e9 29 db 3c c4 4f a2 bd
       -0.08286395 -0.011495381 0.026753383 -0.0792537
0001a0 3c 6a 67 bd 5d dd a0 bc ed 76 0b be ea 0b ef bd
       -0.056497797 -0.019636804 -0.13619585 -0.11672194
0001b0 5e f6 86 3d 41 47 97 3d 48 00 1e 3c e4 01 f6 3d
       0.065899596 0.073866375 0.009643622 0.12012079
0001c0 9a e3 ce 3d 2c 63 62 3d 0c 39 8b 3d fe 40 08 3e
       0.10102005 0.05527036 0.0679799 0.13306043
0001d0 6d 41 f5 3d e1 96 58 3d 79 55 a3 3d 5c 7c 2a bc
       0.119753696 0.052878264 0.07975287 -0.010405626
0001e0 82 e2 f0 3c 56 34 99 bc 8e 6c 98 bd 35 9e 79 bd
       0.029404882 -0.018701714 -0.0744258 -0.060941894
0001f0 e9 4c f9 3b c9 03 8b 3c 76 c1 68 bd 3f 93 72 3c
       0.0076080454 0.016969578 -0.056825124 0.014805614
000200 5a 8e ec bc a9 95 e2 3d 7b 8f 14 3e 6f eb 41 bd
       -0.028876472 0.11063702 0.14507858 -0.047343668
000210 73 0d 89 3d 6a 60 c8 3d 5f 64 c4 3d 07 e2 49 3d
       0.06692018 0.097840145 0.09589457 0.049287822
000220 06 c7 40 3d 1e 1e 1e 3e 6f ef 88 3d 9d 4c b4 3c
       0.047064804 0.15441176 0.06686293 0.022009188
000230 af 67 b2 3d 4b e7 64 3d d4 8b 27 3d 6f cb ea 3c
       0.08711182 0.05588464 0.040904835 0.028661458
000240 fa 0f d2 3d 4f 5b ee 3b 61 3f 11 3d b3 24 30 3e
       0.102569535 0.0072740684 0.035460833 0.172015
000250 50 c2 62 3d 9c f2 dc bd 8f ba 1a 3e d8 f8 8d 3d
       0.055361092 -0.107884616 0.15110229 0.06932229
000260 6a d2 ec 3d 3b 8a bc bd 72 ea bb 3b a9 85 c8 3d
       0.11563571 -0.09206053 0.005734735 0.09791119
000270 40 f7 15 bd 93 50 56 bd 1d f1 6a 3d c1 10 09 3d
       -0.03661275 -0.052322935 0.05735885 0.033463243
000280 34 88 bf bd 24 4b 5c bd 2a 43 b5 3d a3 04 a1 3d
       -0.093521506 -0.053782597 0.08850701 0.078622125
000290 40 f6 1b be 7c ac e5 3b e2 95 f9 3d ea 17 2b 3e
       -0.15230656 0.007009087 0.12186791 0.16708341
0002a0 43 9c 92 3d 19 be 67 bd 53 a2 10 3e bd 9a fd 3c
       0.07158711 -0.056577776 0.14124422 0.030957574
0002b0 78 a8 e0 bc 55 19 39 bd aa 56 9c bd c5 3c 5d bd
       -0.027424082 -0.045190174 -0.07633717 -0.054013032
0002c0 6d d1 0f be 75 73 8b 3d d7 eb ba 3d f6 12 99 3c
       -0.14044733 0.06809131 0.09127014 0.0186858
0002d0 07 a6 d2 bd 54 6d 9d bc 25 53 ab 3d 4a 57 ce 3c
       -0.102855735 -0.01921717 0.08365468 0.025188107
0002e0 be c6 b8 bd b7 eb d5 3c 32 15 aa 3c e3 43 15 bd
       -0.09022282 0.026113374 0.02076206 -0.036441695
0002f0 55 53 0e be 81 51 90 bd 58 92 33 bc eb ed 22 3c
       -0.13898976 -0.07046796 -0.010960184 0.009944419
000300 f3 1c 01 bc 0b 4e 93 bd cf 3c d8 3d 81 8f 07 bc
       -0.007880437 -0.0719262 0.10558473 -0.00827396
000310 69 bd fc 3c 93 ec a5 bd 1f 34 ba 3b e8 4b 16 3d
       0.030852037 -0.081017636 0.005682483 0.036693484
000320 ef 2d 36 3e 33 ac d0 bc da 74 af bd 2a 32 39 3e
       0.1779096 -0.025472736 -0.085672095 0.18085542
000330 c4 ab 74 bd 38 29 07 be b3 84 66 3c 9f 70 45 3d
       -0.05973412 -0.13199317 0.014069724 0.048203107
000340 e2 0c b4 3d 11 28 b6 bc f7 cf 13 3e 06 a9 8c 3d
       0.0879152 -0.022235902 0.14434801 0.06868176
000350 e7 c8 03 bd 18 5e ee 3d cb 42 56 3d 44 c9 e0 3d
       -0.032174017 0.11639041 0.052309792 0.10975888
000360 eb d7 39 3d 93 7f 34 3d 63 b9 d0 3d 2f 8e cd 3d
       0.04537193 0.044066977 0.1019161 0.10036885
000370 6a 36 2f 3b 7f 5d 06 3e 87 bf 92 3d bc 4a f8 3c
       0.0026735314 0.13121603 0.07165437 0.030309074
000380 db cb 10 bb 96 34 99 bd 7a f7 5d bd 13 2f ad 3c
       -0.0022094164 -0.07480733 -0.05419109 0.02114061
000390 d7 7a be bc d4 5f 30 bd 08 88 b6 3c 19 93 3d 3b
       -0.023251934 -0.04306014 0.022281662 0.0028926788
0003a0 a2 17 2b bd 79 46 d5 bd e3 9e 62 bd 26 a0 e1 bd
       -0.041770585 -0.10413832 -0.055327307 -0.11016874
0003b0 c1 ff 8c bd f2 22 9b 3c d3 a0 18 be 3e 4d a6 bd
       -0.06884719 0.018937562 -0.149051 -0.081202015
0003c0 0e e6 9c 3c 50 8c d9 bc 0a c2 6a bd cf 6a 8e bd
       0.019152667 -0.026556164 -0.057313956 -0.06953966
0003d0 6d 17 77 3d 51 f6 dd bc 33 c8 45 be a6 56 71 bd
       0.060325075 -0.027094992 -0.19314651 -0.058920525
0003e0 02 c9 78 bd 1a 10 3b bd 8c 69 23 3d b0 c9 16 3d
       -0.06073857 -0.045669653 0.03989558 0.036813438
0003f0 d9 e7 8a 3d 1a e2 ee 3c e3 86 00 be 30 57 53 3c
       0.06782503 0.029160548 -0.12551455 0.012899205

conv2.bias f4 [8]
000000 45 ab da bd aa 38 7c bd e8 f0 30 be 9d 7e ca bc
       -0.10677198 -0.061577477 -0.17279398 -0.024718577
000010 13 59 ac 3c bf 2c 3d bb 07 d9 00 be d9 69 85 be
       0.021038568 -0.0028865782 -0.1258279 -0.26057318

fc1.weight f4 [32, 512]
000000 9c 40 b0 3d b2 4e 88 3d d3 6a ec 3c 59 60 6f 3c
       0.08606073 0.06655635 0.028859532 0.014610373
000010 60 5d 24 3c ee 1a 97 bb 2b 4c 07 3d a2 05 80 3c
       0.010032028 -0.0046113646 0.033031624 0.015627686
000020 9d 6a 79 3d 35 e3 bb 3c fd 70 54 bc af b7 b5 3c
       0.06089269 0.02293549 -0.012966392 0.022182314
000030 87 fb e9 bc da b8 7d 3c d3 a8 0f bd d0 fa 4d 3a
       -0.02856232 0.015485967 -0.035073113 0.00078575034
000040 53 46 36 3d 79 a0 db 3b d4 84 b2 bd 09 55 a9 bc
       0.04450066 0.0067024794 -0.08716741 -0.02067043
000050 df 6c 2e bd 6d 69 62 3d ad 84 0f 3b f3 b6 37 bd
       -0.042584296 0.055276323 0.002189915 -0.04485221
000060 f0 ba 5b 3c 13 8f 36 3d 1b b2 dc 3c 19 b1 ff 3c
       0.013411269 0.04457004 0.026940396 0.031212376
000070 36 e2 20 bc ec 5d 5a 3d 98 e6 97 3c ad ca 88 bc
       -0.009819558 0.053312227 0.018542573 -0.016698206
000080 20 10 40 3d 0d 05 39 3d 3d f5 d8 3c d6 12 2e 3d
       0.046890378 0.045170832 0.026484126 0.042498432
000090 bf c0 2b 3d d9 7e aa 3c 6c 48 30 3d e2 41 21 3d
       0.041931864 0.020812439 0.043037817 0.03936947
0000a0 d4 5c e0 3c 4b ba 56 3d 11 92 9f 3c ae 9a 2d 3d
       0.027388014 0.052423757 0.01947883 0.042383842
0000b0 a4 27 e8 bb c6 f8 3f 3d 88 10 a8 3d 15 fa 96 3d
       -0.0070848037 0.04686811 0.08206278 0.07371918
0000c0 70 22 b5 3c 6e 74 13 3d 9f 8e 09 3d 47 4f bf 3b
       0.022111148 0.035999708 0.03358328 0.005838308
0000d0 7f 7c 2a 3d 61 88 94 3c 4b eb 4f 3d 2a 5e 2e bd
       0.041622635 0.018131437 0.050761502 -0.04257027
0000e0 71 75 49 3c f2 e9 63 3d 15 e5 5a 3d 71 87 83 3d
       0.012296067 0.05564303 0.053441126 0.06422318
0000f0 86 ad bc 3d 70 75 81 3d 69 d8 0a 3d e4 e5 af 3b
       0.092127845 0.063212276 0.03389779 0.0053679813
000100 65 94 6d 3c 85 fd 55 3d 61 08 c3 3c ac 7e 88 3a
       0.014500712 0.05224373 0.023807706 0.0010413728
000110 62 e1 6f 3c 8a 82 28 3d 98 4f 0a 3d 30 f5 e5 3c
       0.014641138 0.041140117 0.033767313 0.028071016
000120 0a 66 29 bd 5d 10 e6 bc 91 35 60 bd b7 6b 06 bb
       -0.041357078 -0.028083974 -0.054738585 -0.002051098
000130 dc 41 f0 bc 64 a5 7f 3d 54 60 a4 3d 73 ae 46 3d
       -0.02932828 0.06241359 0.08026186 0.04850621
000140 cc a0 ee bc f8 cb eb bc 73 8c 22 ba ce fc b1 ba
       -0.029129408 -0.028783783 -0.0006200738 -0.001357937
000150 ee 04 38 3d 8e 67 3c 3d 30 d4 7a 3d 84 13 a1 bc
       0.044926576 0.045997195 0.061237514 -0.019662626
000160 01 7c 28 3d d7 41 11 bd f2 4e f9 bc 82 57 80 3c
       0.041133884 -0.03546318 -0.030433152 0.015666727
000170 e2 28 17 3d 17 46 15 bc 26 4c a8 3c 3c c5 b8 bd
       0.036904223 -0.009110949 0.020544123 -0.090219945
000180 f3 5d ab bc cf d3 b7 3c 63 06 db 3c ac 22 57 3d
       -0.020918822 0.022439865 0.026736444 0.0525233
000190 9d 0b 8f 3d 36 3a 0c 3d cc ba dd bc 97 db 67 bc
       0.06984637 0.0342352 -0.02706661 -0.014151475
0001a0 87 77 78 bd 93 81 c0 bc 6a 5a b8 3b e4 2c 27 bd
       -0.060660865 -0.023499286 0.0056260126 -0.040814295
0001b0 6e 05 af 3c 7c bb 1c 3c dc 9d ca bb c5 da 2f 3d
       0.021364894 0.009566184 -0.006183369 0.042933244
0001c0 12 11 ce bc 7a af 73 3d 38 92 c1 bc 38 43 7a 3c
       -0.025154624 0.05949352 -0.023629293 0.015274815
0001d0 3d 04 81 b8 74 14 07 3c 8a b7 3d bd 69 e8 ca bc
       -6.151989e-05 0.0082446225 -0.046317615 -0.024769025
0001e0 db 67 db bb b7 aa 8e 3b a5 7f 0a bc 95 8e 48 3d
       -0.00669573 0.004353847 -0.008453284 0.0489641
0001f0 50 9e e5 3c ad 47 bb 38 54 ca aa bb f0 70 41 bb
       0.02802959 8.9302055e-05 -0.0052121077 -0.002951678
000200 b4 87 24 ba 27 7d bb 3c 3f 78 30 3d 9e 2d bf 3b
       -0.0006276325 0.022886826 0.043083426 0.0058342954
000210 be f5 01 3d 5b 6f 3d bb 79 74 4e 3c f0 25 d0 3c
       0.0317285 -0.0028905484 0.012601011 0.025408715
000220 7c fc 06 bd b6 f5 ac bc d2 fb 82 bc f9 d4 92 3c
       -0.03295563 -0.021113258 -0.015989218 0.017923819
000230 a1 d9 cd 3c 44 96 66 3d 51 91 50 bd 9b 61 c3 bc
       0.025128188 0.05629565 -0.050919835 -0.023850253
000240 39 b1 1f bd 5e 6d 76 3b 6f 04 18 bc e1 a3 45 3c
       -0.038987372 0.003760181 -0.009278401 0.012062998
000250 41 dc d6 3a 82 60 00 3d 44 28 9d 3a 4c be 9e 3c
       0.0016392545 0.031342037 0.001199015 0.01937785
000260 a5 1c 59 3d 0d 19 9c 3d f3 15 8b 3d d2 5b d2 bc
       0.053005833 0.076219656 0.06791296 -0.025678549
000270 59 70 78 bd 8d 85 7c bb e2 dc 2d 3d 52 e1 7f 3d
       -0.060654018 -0.003853175 0.04244698 0.06247074
000280 e7 b7 33 bc de c9 58 3d c3 af 39 3d 0e 48 62 bc
       -0.010969139 0.05292689 0.045333635 -0.0138111245
000290 10 1e ae ba e2 2a f6 bc dc 25 45 3b 34 a6 21 bb
       -0.0013284106 -0.030049745 0.003008238 -0.0024665715
0002a0 5d 07 21 3c 8b 20 8f 3d 30 64 51 3d 55 53 62 bc
       0.009828416 0.06988629 0.051120937 -0.013813813
0002b0 d1 53 12 bd 92 9b b5 3b 87 60 02 bd 9e db 81 bd
       -0.035724465 0.005542227 -0.031830337 -0.06340717
0002c0 2f 50 cf bb ad e3 00 3c 30 10 5f bc ce 45 57 bc
       -0.0063266973 0.007866782 -0.013614699 -0.013139201
0002d0 c6 a1 ac 3c 72 51 c5 bc 0e ba cf 3c 1b 80 96 bc
       0.021073233 -0.024086688 0.025357272 -0.018371632
0002e0 b1 30 9c ba 6d 60 5b 3c 2e 6f 77 3c 1c 41 aa bc
       -0.0011916367 0.013389689 0.015102191 -0.020783
0002f0 20 47 2f 3d 7b e5 1e bd 79 4a 4a 3d 71 23 b2 bc
       0.04279244 -0.03879307 0.04938743 -0.021745415
000300 20 21 80 bc 58 d6 2c 3d d0 e8 3e 3d 62 c0 63 bc
       -0.015640795 0.0421966 0.046608746 -0.013900848
000310 75 da f7 3b bf 6e 09 3c 41 62 ee 3c 3f b4 97 bc
       0.007563884 0.00838822 0.029099585 -0.018518565
000320 75 c0 fb 3c 12 fa 8a bb 6a 9c 21 3c e0 2d 15 3d
       0.03073142 -0.0042412365 0.009863952 0.036420703
000330 bc e2 32 3d e1 f5 3b bc f5 d2 f1 3a cd 67 10 ba
       0.043673262 -0.011472196 0.0018449711 -0.00055086316
000340 c0 3c 3d 3c 68 13 8d 3d 05 f5 4b 3d 52 19 9f 3d
       0.011550128 0.06888467 0.049794216 0.07768501
000350 fd d9 80 3d e6 d1 7e 3b 20 00 9a bc 1d 2d bc 3a
       0.06291578 0.0038882433 -0.018798888 0.0014356707
000360 21 51 58 bd 5f aa d9 bb 22 8d 76 3d 5c 03 fb 3c
       -0.052811746 -0.0066426243 0.06019319 0.03064125
000370 8c 76 b2 bb 7d 5b 69 bc b9 60 cd bc 34 63 9a 3c
       -0.005446261 -0.014243004 -0.025070535 0.018846132
000380 51 cd f2 bc 5d c4 10 3d ed 26 a7 3b fc 96 8d 3c
       -0.029638918 0.035343517 0.005101076 0.017283909
000390 5c 5e 84 bc 41 2c 85 3c ac eb 6c 3d ec b2 f2 bc
       -0.016158275 0.016256453 0.05784194 -0.029626332
0003a0 07 86 02 3c ce 87 2d 3d 7f fe 49 3d 55 65 06 3d
       0.007966525 0.04236584 0.049314972 0.03281148
0003b0 88 65 ba bb cc f0 86 3c 75 1f 85 bc c3 7d 68 bc
       -0.005688373 0.016472243 -0.016250351 -0.01419014
0003c0 ef 3b 83 bd ad 1d a6 bd 3c 32 83 bd fb 64 37 3d
       -0.06407916 -0.08111129 -0.06406066 0.044774037
0003d0 8e 8c 4b bc 6c e6 ad bd d9 ae 17 bd c9 df 92 bc
       -0.012423648 -0.08491215 -0.037031982 -0.017928975
0003e0 5d 0b 18 3d af a0 c1 3c 14 64 85 3c 11 43 45 bc
       0.037120212 0.02363619 0.016283073 -0.012039916
0003f0 0a d9 5b 3d ec 86 a9 bc 8a d5 27 3c fc 45 ea 3a
       0.05367378 -0.020694219 0.010243783 0.001787364

fc1.bias f4 [32]
000000 62 bc 7f 3c 46 2f 28 bd c2 93 08 3d d3 32 3f bc
       0.015608879 -0.04106071 0.033344038 -0.011669832
000010 7f 7a f3 bd 8e 77 81 3b af c2 4b bc c2 3b 74 3d
       -0.11888599 0.0039510196 -0.012436553 0.059627302
000020 b9 af 80 bd cb fb ef 3c 75 af 05 bd 18 79 c9 bd
       -0.062835164 0.029294869 -0.032638032 -0.0983755
000030 3e 59 21 bd 95 1f 1d bb 7a ab cc ba 67 9f 00 3d
       -0.03939175 -0.0023975123 -0.0015615069 0.031402018
000040 5e 2c 2a 3d 30 da ac 3c e8 b1 01 3d 03 dd 95 3c
       0.041546218 0.021100134 0.031663805 0.018293863
000050 6d 33 b5 bc 3e bd 6d 3c c5 94 65 bb 0b 1b d5 3d
       -0.022119248 0.014510451 -0.00350313 0.10405549
000060 1f f2 05 bd e8 7c 06 3c 45 e4 e9 3c 55 1d b5 bb
       -0.032701608 0.008208491 0.02855123 -0.0055271783
000070 f9 3b 16 bd e5 24 d5 bb 6f ee 53 3d 77 d7 58 3c
       -0.036678288 -0.0065046423 0.05174106 0.013234965

fc2.weight f4 [2, 32]
000000 8c 9f df be 55 ef ed 3e 95 3e 0c bf 53 9b 9c be
       -0.43676412 0.46471658 -0.5478299 -0.30587253
000010 d5 97 b1 be 44 55 75 3e 2d 2d ba 3e ef 16 44 3e
       -0.3468615 0.23958308 0.3636259 0.19149373
000020 0e fa 40 3f b8 ec b6 3e aa 95 f8 bd 0e 77 16 bf
       0.75381553 0.35727477 -0.12137921 -0.58775413
000030 8e a8 ac 3e 09 ca 35 3d 5c d2 9e 3d 4b fa 6d be
       0.33722347 0.04438213 0.077549666 -0.2324001
000040 ef b6 00 3e 37 e8 6f 3e 47 15 93 3d 69 3e b5 3e
       0.12569784 0.23428427 0.07181793 0.35399178
000050 d7 6c 8f 3e 08 5d dc be 73 0b a3 3e f8 2b 32 3f
       0.28012726 -0.43039727 0.31844673 0.6959834
000060 12 35 95 be 02 5e 02 3e 3e b4 b1 3e 7c 03 9f be
       -0.29142052 0.12731174 0.34707826 -0.31057346
000070 a8 24 1a be 88 01 66 3e 85 7b fa 3e 6f fb 97 3c
       -0.15053046 0.22461522 0.48922363 0.01855251
000080 4c 12 ae 3e 30 99 de be f8 63 de 3e 50 aa 31 3e
       0.33998334 -0.43476248 0.43435645 0.17350125
000090 e8 c5 10 3f 14 44 bd be d0 8a 2f be c7 58 4e be
       0.5655198 -0.36966002 -0.17142797 -0.20151053
0000a0 f6 6c 3e bf 9f 57 e8 be 6f f4 8b 3e ff e9 fb 3e
       -0.7438501 -0.4537935 0.27334926 0.49201962
0000b0 58 64 05 bf bf 47 c1 3d 3e 37 8b be c5 7c db 3d
       -0.5210624 0.094375126 -0.27190584 0.10717157
0000c0 ff 33 0e 3e a2 b9 2d be 80 3b 9f bc 35 82 9f be
       0.13887022 -0.16965345 -0.019437551 -0.31154028
0000d0 32 1a ed 3c 0f 64 9f 3e 2e e4 c0 be 14 01 30 bf
       0.028943155 0.31131026 -0.37674087 -0.68751645
0000e0 01 9a 8a 3d 70 31 3a be 14 8f e7 be 18 a9 91 3e
       0.06767655 -0.18182921 -0.45226347 0.2844932
0000f0 4d 9a 9e 3e 20 f3 8a be f5 61 0e bf 85 e6 27 3e
       0.30977097 -0.27138615 -0.5561822 0.1639653

fc2.bias f4 [2]
000000 a3 ed 84 3e 81 61 3b be
       0.25962552 -0.18298914
